# Exp3: +SPD — backbone 低层替换 SPDConv，三尺度
nc: 1
scales:
  n: [ 0.50, 0.25, 1024 ]
  s: [ 0.50, 0.50, 1024 ]
  l: [ 1.00, 1.00, 512 ]
  x: [ 1.00, 1.50, 512 ]

backbone:
  - [ -1, 1, Conv,    [ 64,   3, 2 ] ]           # 0-P1/2  保留
  - [ -1, 1, SPDConv, [ 128,  3, 2 ] ]           # 1-P2/4  ★ SPDConv
  - [ -1, 2, DSC3k2,  [ 256,  False, 0.25 ] ]    # 2
  - [ -1, 1, SPDConv, [ 256,  3, 2 ] ]           # 3-P3/8  ★ SPDConv
  - [ -1, 2, DSC3k2,  [ 512,  False, 0.25 ] ]    # 4
  - [ -1, 1, DSConv,  [ 512,  3, 2 ] ]           # 5-P4/16
  - [ -1, 4, A2C2f,   [ 512,  True, 4 ] ]        # 6
  - [ -1, 1, DSConv,  [ 1024, 3, 2 ] ]           # 7-P5/32
  - [ -1, 4, A2C2f,   [ 1024, True, 1 ] ]        # 8

head:
  # head 与 Exp1 完全相同（三尺度）
  - [ [ 4, 6, 8 ], 1, HyperACE, [ 512, 8, True, True, 0.5, 1, "both" ] ]  # 9
  - [ -1, 1, nn.Upsample, [ None, 2, "nearest" ] ]   # 10
  - [ 9,  1, DownsampleConv, [ ] ]                   # 11
  - [ [ 6, 9 ],  1, FullPAD_Tunnel, [ ] ]   # 12
  - [ [ 4, 10 ], 1, FullPAD_Tunnel, [ ] ]   # 13
  - [ [ 8, 11 ], 1, FullPAD_Tunnel, [ ] ]   # 14
  - [ 14, 1, nn.Upsample, [ None, 2, "nearest" ] ]   # 15
  - [ [ -1, 12 ], 1, Concat, [ 1 ] ]                    # 16
  - [ -1, 2, DSC3k2, [ 512, True ] ]                  # 17
  - [ [ -1, 9 ], 1, FullPAD_Tunnel, [ ] ]              # 18
  - [ 17, 1, nn.Upsample, [ None, 2, "nearest" ] ]    # 19
  - [ [ -1, 13 ], 1, Concat, [ 1 ] ]                    # 20
  - [ -1, 2, DSC3k2, [ 256, True ] ]                  # 21
  - [ 10, 1, Conv, [ 256, 1, 1 ] ]                    # 22
  - [ [ 21, 22 ], 1, FullPAD_Tunnel, [ ] ]             # 23 P3 FullPAD
  - [ 21, 1, Conv, [ 512, 3, 2 ] ]                    # 24
  - [ [ -1, 18 ], 1, Concat, [ 1 ] ]                    # 25
  - [ -1, 2, DSC3k2, [ 512, True ] ]                  # 26
  - [ [ -1, 9 ], 1, FullPAD_Tunnel, [ ] ]              # 27 P4 FullPAD
  - [ 26, 1, Conv, [ 1024, 3, 2 ] ]                   # 28
  - [ [ -1, 14 ], 1, Concat, [ 1 ] ]                    # 29
  - [ -1, 2, DSC3k2, [ 1024, True ] ]                 # 30
  - [ [ -1, 11 ], 1, FullPAD_Tunnel, [ ] ]             # 31 P5 FullPAD
  - [ [ 23, 27, 31 ], 1, Detect, [ nc ] ]               # 32